keepsake/iris_classifier/checkpoint_dir/model.pth (torch, 2967 bytes, 4 tensors)

weight f4 [15, 4]
000000 a0 e5 88 3e 32 e3 53 3f 2f 36 1c bf 3c 6c 2d bf
       0.2673769 0.8276855 -0.6102018 -0.6774328
000010 ab 80 1c bf e4 c1 91 be 54 7a db be a0 d0 b6 bc
       -0.6113383 -0.2846824 -0.42866766 -0.022316277
000020 70 bf 35 bd 4c 7b 07 3e ac bb 1a be 70 48 c9 bd
       -0.044372022 0.13230628 -0.15110654 -0.098282695
000030 b8 91 f4 be 52 8b a9 be e8 0e 53 be 00 bb 97 3c
       -0.47767425 -0.33114105 -0.20611155 0.018521786
000040 8a 22 5c 3e 14 78 cb 3e 19 08 06 bf 6c 3b b6 be
       0.2149755 0.3974005 -0.52356106 -0.3559221
000050 1f ca e7 3d 3c 67 5d bd b2 44 b8 3e ad f1 6a 3f
       0.113178484 -0.05405353 0.3598991 0.9177502
000060 27 ab ff be 13 51 bb be 7c 2b 0b 3d d2 f1 61 bf
       -0.49935266 -0.36585292 0.033977017 -0.88259614
000070 66 29 a1 be e0 9e 01 be dc 93 47 be 28 2f dd 3e
       -0.31476897 -0.12658262 -0.19489998 0.4320004
000080 1a ef a5 be c0 b0 6b be 1a da b2 be 76 c2 ef be
       -0.32408983 -0.23016644 -0.34932023 -0.4682805
000090 a2 88 32 bf 55 75 c6 3c fb 20 32 be f1 b9 09 be
       -0.69739735 0.02422587 -0.17395394 -0.13449837
0000a0 40 6a d7 3c 3a 3f 83 be c0 3e ad 3d 9e 06 ef be
       0.026295781 -0.25634176 0.08459234 -0.46684736
0000b0 1a fa b8 be c6 f9 83 be 26 85 a1 3e 26 19 96 3e
       -0.36128312 -0.257765 0.31546897 0.29316062
0000c0 18 c2 01 be e7 07 99 be f9 9a 7a 3f da 3e a3 3f
       -0.12671697 -0.29888842 0.9789272 1.2753556
0000d0 38 34 b5 be 72 20 01 bf 5e 3f 51 be 71 70 58 bf
       -0.35391402 -0.5044013 -0.20434329 -0.8454657
0000e0 f8 d0 be 3d 6c 7a c6 be 18 6e b1 be d2 3e 84 be
       0.093172014 -0.38765275 -0.34654307 -0.25829178

bias f4 [15]
000000 a2 fa 2c 3f ac e7 5e be 6a a4 97 be c8 ad 1a 3e
       0.67569935 -0.21768063 -0.29617625 0.15105355
000010 f3 d2 9f 3e 9f 01 da be 70 a1 cc be 00 44 ed 3d
       0.3121563 -0.42579362 -0.39966917 0.115852356
000020 00 d1 9e 3e 28 51 97 3d 96 47 c5 be ec a1 3b be
       0.3101883 0.07388526 -0.38531178 -0.18323487
000030 74 df 3d 3c c4 57 0a be e8 c5 de 3e
       0.01158892 -0.13510042 0.43510365

weight f4 [3, 15]
000000 34 fc 5a 3f 9b 18 bc be f4 e9 65 be 50 94 c2 3c
       0.8554108 -0.36737522 -0.22452527 0.023752362
000010 19 7a f0 3e ef 2b fe be d5 e5 41 be 2c 09 49 3e
       0.46968153 -0.49642894 -0.1893533 0.19632405
000020 fc de 83 be 5a f1 bd be 10 29 32 bd 7c 09 2e bd
       -0.2575606 -0.370982 -0.04349619 -0.042489514
000030 7d 36 73 bf 32 6c 3a be 3c 9a 1c be 14 c9 b7 3d
       -0.9500502 -0.18205336 -0.1529321 0.089738995
000040 d4 8c 93 be fa 45 3d 3e 90 b8 c5 3d 94 14 fe be
       -0.2881838 0.18483725 0.09654343 -0.49625075
000050 21 28 76 bd 00 35 0c 3f 80 5a 5d 3d 36 40 4e be
       -0.060096864 0.5476837 0.054041386 -0.20141682
000060 82 70 89 3e e2 ba 78 3e 8e 27 32 3e 8d ff 38 3e
       0.2684365 0.2429004 0.17397901 0.18066235
000070 3f 68 39 3e e1 dc 7b be 9f 02 5a bf 94 b4 65 3e
       0.18106173 -0.24595977 -0.8516025 0.22432166
000080 80 f1 4b be f0 16 69 bc 98 6d f6 be 26 21 b1 bd
       -0.19916344 -0.01422666 -0.48130488 -0.08648901
000090 9f 6c 12 3f 25 e5 20 be 9c e7 6f 3e 74 c8 6e be
       0.5719699 -0.15712412 0.23428196 -0.23318654
0000a0 da f5 5e be 9e 9b 83 bd f6 9c 01 3f 10 8a 1c be
       -0.21773472 -0.06426166 0.5063013 -0.15287042
0000b0 d8 d4 7a 3d
       0.06123814

bias f4 [3]
000000 34 ba 3e 3d dc 8c ac 3e ef 3f 19 bf
       0.046564296 0.33701217 -0.5986318
